# YOLOv5 🚀 by Ultralytics, AGPL-3.0 license

# Parameters
nc: 80  # number of classes
depth_multiple: 0.33  # model depth multiple
width_multiple: 0.50  # layer channel multiple
anchors:
  - [ 10,13, 16,30, 33,23 ]  # P3/8
  - [ 30,61, 62,45, 59,119 ]  # P4/16
  - [ 116,90, 156,198, 373,326 ]  # P5/32

# YOLOv5 v6.0 backbone
backbone:
  # [from, number, module, args]
  [ [ -1, 1, Resnet18ToLayer2, [ ] ], # 0
    [ -1, 1, Resnet18Layer3, [ ] ],   # 1
    [ -1, 1, Resnet18Layer4, [ ] ],   # 2
    [ -1, 1, SPPF, [ 1024, 5 ] ]       # 3
  ]

# YOLOv5 v6.0 head
head:
  [ [ -1, 1, Conv, [ 512, 1, 1 ] ], # 4
    [ -1, 1, nn.Upsample, [ None, 2, 'nearest' ] ], # 5
    [ [ -1, 1 ], 1, Concat, [ 1 ] ],  # 6
    [ -1, 3, C3, [ 512, False ] ],  # 7

    [ -1, 1, Conv, [ 256, 1, 1 ] ], # 8
    [ -1, 1, nn.Upsample, [ None, 2, 'nearest' ] ], # 9
    [ [ -1, 0 ], 1, Concat, [ 1 ] ],  # 10
    [ -1, 3, C3, [ 256, False ] ],  # 11

    [ -1, 1, Conv, [ 256, 3, 2 ] ], # 12
    [ [ -1, 8 ], 1, Concat, [ 1 ] ],  # 13
    [ -1, 3, C3, [ 512, False ] ],  # 14

    [ -1, 1, Conv, [ 512, 3, 2 ] ], # 15
    [ [ -1, 4 ], 1, Concat, [ 1 ] ],  # 16
    [ -1, 3, C3, [ 1024, False ] ],  # 17

    [ [ 11, 14, 17 ], 1, Segment, [ nc, anchors, 32, 256 ] ],  # Detect(P3, P4, P5)
  ]
