# YOLOv5 🚀 by Ultralytics, AGPL-3.0 license

# Parameters
nc: 80  # number of classes
depth_multiple: 0.33  # model depth multiple
width_multiple: 1.0  # layer channel multiple
anchors:
  - [ 10,13, 16,30, 33,23 ]  # P3/8
  - [ 30,61, 62,45, 59,119 ]  # P4/16
  - [ 116,90, 156,198, 373,326 ]  # P5/32

# YOLOv5 v6.0 backbone
backbone:
  # [from, number, module, args]
  [ [ -1, 1, ShuffleNetV2X20P3, [ ] ], # 0
    [ -1, 1, Conv, [ 256, 1, 1 ] ], # 1
    [ -2, 1, ShuffleNetV2X20P4, [ ] ], # 2
    [ -1, 1, Conv, [ 512, 1, 1 ] ], # 3
    [ -2, 1, ShuffleNetV2X20P5, [ ] ], # 4
    [ -1, 1, Conv, [ 1024, 1, 1 ] ], # 5
    [ -1, 1, SPPF, [ 1024, 5 ] ]  # 6
  ]

# YOLOv5 v6.0 head
head:
  [ [ -1, 1, Conv, [ 512, 1, 1 ] ], # 7
    [ -1, 1, nn.Upsample, [ None, 2, 'nearest' ] ], # 8
    [ [ -1, 3 ], 1, Concat, [ 1 ] ],  # 9
    [ -1, 3, C3, [ 512, False ] ],  # 10

    [ -1, 1, Conv, [ 256, 1, 1 ] ], # 11
    [ -1, 1, nn.Upsample, [ None, 2, 'nearest' ] ], # 12
    [ [ -1, 1 ], 1, Concat, [ 1 ] ],  # 13
    [ -1, 3, C3, [ 256, False ] ],  # 14

    [ -1, 1, Conv, [ 256, 3, 2 ] ], # 15
    [ [ -1, 11 ], 1, Concat, [ 1 ] ],  # 16
    [ -1, 3, C3, [ 512, False ] ],  # 17

    [ -1, 1, Conv, [ 512, 3, 2 ] ], # 18
    [ [ -1, 7 ], 1, Concat, [ 1 ] ],  # 19
    [ -1, 3, C3, [ 1024, False ] ],  # 20

    [ [ 14, 17, 20 ], 1, Detect, [ nc, anchors ] ],  # Detect(P3, P4, P5)
  ]
